model/keypoint_classifier/keypoint_classifier.tflite (tflite, 8696 bytes, 8 tensors)

sequential_1/dense_7/MatMul f4 [19, 16]
00000000: 17c1 f8be 179d dfbe 08ef 2bbe 4814 4fbf
00000010: 6e59 d5be 860c 7abe ec8b 503f ce90 9b3f
00000020: 7b15 cabf 7a46 16bf 655e 02c0 8b29 75bf
00000030: 2d18 c1bf 7e2f 8c3e aeb1 97bf 1eca 37bd
00000040: c9b1 83bf 049b 6fbf 5a39 a73e 8655 c53d
00000050: 3c75 7e3d a29d 033e 561e 513f a583 c13e
00000060: eb3b 693d 9ea7 9ebe f9e2 34bf f97a 323f
00000070: c7f7 37be 6d89 07bf a7cd 43bf 2c38 5abf
00000080: b422 07bf 5ee8 05c0 c7fa 97bf bf61 ffbf
00000090: f369 473e adf6 09bf 0ab1 373e d0f5 aa3e
000000a0: 400c b8be c4c6 97bf 0ce2 e13b fd19 4e3f
000000b0: 2179 acbf dd11 213f 4ad0 c73e d359 d6be
000000c0: 82e2 d83e 1b84 583e 626b 903e 24c5 933e
000000d0: aaed c8bf eaa2 97bd 6edd 193e bc06 d93e
000000e0: 1f06 e83e 0061 223e db1d 97bf 94be 95bf
000000f0: 1224 c03c f35b b4bf e094 35bf 7207 fc3e
00000100: f84c cdbe 8561 2ec0 7fd1 e7bf 477c 69c0
00000110: 2b7a 963e e477 6dbf 77f2 c9be cc4e 543f
00000120: 59aa aabf edb6 903d 558a 2ebe 317a fe3e
00000130: 1101 0abf 2084 3bbe 26b4 c2be b0b9 1c3f
00000140: 33a4 17bf 924f f13b 1ed9 36bf 57f5 15bf
00000150: f80d 483f 3155 b93e 260b b8bd 908f b6be
00000160: 293f 803e cb78 a1bf 708a a9bc cac9 9abf
00000170: 0731 143f c834 c13c 9558 433f b507 db3e
00000180: 6c6c ecbd 6665 e2bf b260 c9bf aab8 9ebf
00000190: 6c30 48be 2965 c1bd cce4 33bd 9337 30bd
000001a0: 4c8f 04bf a797 9fbf 3c31 a53f 11c9 c5bd
000001b0: f655 d6bf 4942 89bd 457c 7bbe 86b0 613f
000001c0: fc6f 493e f00e 9f3f a3ca fe3e ef43 93bf
000001d0: e987 923e 09b9 3d3e d637 72bf 7a0b 85bd
000001e0: eb04 993e 5a96 98bf 5dd3 ea3d 4dde 623f
000001f0: b8da 80be 0828 e0bf 6c6f 473e 5a3c dbbe
00000200: 3d7d aabf 8aa1 d3be cedc 6e3f 1a66 ffbf
00000210: 0ff9 c1bf 53d8 953e 9758 3fbf 60e6 253f
00000220: e9df c9bf 87a6 973e 9b85 4b3f 7155 50bf
00000230: 5bbf 76bf f86b e2bd 9cb9 78bf 792c 1c3f
00000240: 6870 0d3f a3d3 91bf b972 a73c f545 043f
00000250: ff97 2dbf 9ae8 b2be f1d8 59bf f2db b13e
00000260: 3cae 9f3f 295e 29bf 1eaa b13e ab47 d4bf
00000270: 8da7 553f 980f 783e 225d 2dbf 2ccf e8bf
00000280: 3168 26bf d65d 9cbf 9442 37bf 5b63 efbf
00000290: 6406 6abf 64d0 02bf 53b4 ae3f a7f8 13c0
000002a0: d781 c0be 35b4 a93e 6623 80bf 3176 d5bf
000002b0: b0a4 373f c5ac b63d 0183 41bf 8f44 e4be
000002c0: 5a1c 5abe 884f 06c0 8144 7bbe d941 01c0
000002d0: 069c 1ebf 6592 cebf bad9 f2be 7a28 a6bf
000002e0: cb40 2ebf 1f9a cb3e 4b5b 793e 72f5 203f
000002f0: 158e f53e d814 6abf 0fc8 783e 9820 753d
00000300: 5f1b 003e 2720 50bf 7e2b a0be 34be babf
00000310: 6835 223e 2b5a 223f fc78 99be 5b88 f8bd
00000320: 1b4f 1abe 9e89 6fbd 17a9 693e ab56 96be
00000330: 50ce a93e 3793 693e 5154 0bbf bb9f 8e3e
00000340: daab 7a3f 38cf d0be fbf7 74bf 5287 a3bf
00000350: eece 073e ef2e 5bbe 0d57 133e 17be bebf
00000360: c451 b9be e6e2 1840 21e0 35bf efa4 fbbe
00000370: 7c27 b8bf 64c4 453f f3cb 223f f854 b8bd
00000380: 5b5d 6ebf 65e9 6a3f ca6b 123f c827 843e
00000390: 52c1 46bf bb84 f83e 299f 80bf 8e76 c03c
000003a0: 1d93 68bf 14aa a53e 873b bbbe 6851 15bf
000003b0: 661b 4c3e bf0d ea3e 88db 3a3f 9be3 5f3d
000003c0: dd02 0ac0 d3bc 2abe 6bb4 2f3f 6c31 80bf
000003d0: 9ee6 283f 695f 193f 1c27 19bf 2adc 8ebf
000003e0: 7612 97bd 8efa 4cbf 5a59 7cbe 386d a4bf
000003f0: 56b2 a73e 8e1c aa3e 524d 84bf 8038 d8bf
-0.48584816 -0.43674538 -0.16790402 -0.8089032 -0.41669792 -0.2441884 0.81463504 1.2153566
-1.5787805 -0.5870129 -2.0370114 -0.95766515 -1.5085503 0.27379984 -1.1851099 -0.04487049
-1.0288631 -0.9359591 0.32660943 0.09635453 0.062123522 0.12853101 0.81686914 0.3779575
0.056941908 -0.30987257 -0.7065883 0.6971889 -0.17965613 -0.5294407 -0.76485676 -0.8524196
-0.5278733 -2.0923076 -1.1873406 -1.9951705 0.1947401 -0.5389202 0.17938629 0.33390665
-0.35946846 -1.1857533 0.006893402 0.80508405 -1.3474466 0.6291788 0.390261 -0.41865405
0.42360312 0.21144144 0.28206927 0.28861344 -1.5697529 -0.0740412 0.15025875 0.4238795
0.4531717 0.15857315 -1.1805986 -1.1698785 0.0234547 -1.4090561 -0.7093029 0.4922443
-0.40097785 -2.7247021 -1.8110808 -3.6482103 0.29390082 -0.92761064 -0.39442798 0.82932734
-1.3333236 0.0706614 -0.17044957 0.497026 -0.5390788 -0.1831212 -0.38028067 0.61220837
-0.59234923 0.007364222 -0.71425045 -0.58577484 0.78146315 0.36197808 -0.089865014 -0.35656404
0.25048187 -1.2614988 -0.020695895 -1.2092831 0.5788731 0.023584738 0.7630704 0.42779317
-0.11544117 -1.7687194 -1.5732634 -1.2400105 -0.19549721 -0.09443123 -0.04391937 -0.04302175
-0.51781154 -1.2468156 1.290565 -0.09657491 -1.6744983 -0.06702096 -0.24559124 0.8815998
0.19671625 1.2426434 0.49763975 -1.1505107 0.28619316 0.18527617 -0.9461645 -0.064963296
0.29886565 -1.1920884 0.114660956 0.88620454 -0.2516687 -1.7512217 0.19476098 -0.42819482
-1.331947 -0.41334182 0.9330567 -1.9953034 -1.5154132 0.29266605 -0.7474455 0.6480465
-1.5771457 0.29619238 0.7950074 -0.81380373 -0.96385735 -0.1105575 -0.9715822 0.6100536
0.55249643 -1.1392711 0.020440446 0.51669246 -0.6781005 -0.34943086 -0.8509665 0.34738117
1.2475047 -0.661593 0.34700102 -1.6584371 0.8345879 0.24224699 -0.67720234 -1.8188224
-0.65002733 -1.2216136 -0.71585965 -1.8702196 -0.91416 -0.5109923 1.364878 -2.3120515
-0.3759906 0.331453 -1.0010803 -1.6676694 0.7173567 0.08919672 -0.7559052 -0.44583556
-0.21299878 -2.0986042 -0.24537851 -2.019644 -0.6195682 -1.6138426 -0.47431737 -1.2981102
-0.68067616 0.39766023 0.24351232 0.6287452 0.47959962 -0.91438055 0.24295066 0.059845537
0.12510441 -0.8129906 -0.31283182 -1.4589295 0.15840685 0.63418835 -0.29975116 -0.12135383
-0.15069239 -0.05848085 0.22818409 -0.29362997 0.33165216 0.22810064 -0.5442553 0.2785624
0.97918475 -0.40783095 -0.9569089 -1.2775671 0.13262531 -0.21404622 0.14388676 -1.4901761
-0.36195195 2.3888488 -0.7104512 -0.49149272 -1.438705 0.77252793 0.6359245 -0.090005815
-0.931112 0.9176238 0.57195723 0.258116 -0.77638733 0.48538765 -1.0048572 0.023494031
-0.9084948 0.32356322 -0.36568853 -0.5832734 0.19932327 0.45713612 0.7299123 0.05466042
-2.1564248 -0.16673593 0.6863467 -1.0015082 0.65976894 0.5991121 -0.598253 -1.1160939
-0.07376568 -0.80069816 -0.2464346 -1.2845831 0.32753247 0.3322491 -1.0336096 -1.6892242

sequential_1/dense_6/MatMul f4 [16, 32]
00000000: b590 6d3e e3a6 b8be dbfc 72bf 14e1 8c3f
00000010: 26dc e0bf 3e6b 0b3f fbce a5be 0e9f 493f
00000020: 8209 403e 4029 afbe f694 8bbf c022 0abf
00000030: ee01 37bd b69c 99bf b050 76bf c3ad 5a3d
00000040: e731 b6bc 75c4 cf3f 220f 24be 6f08 263f
00000050: 8423 c93e 08bd 8f3e 9f96 47bf c934 243f
00000060: 69c0 60be 7d61 d43e cd47 d83d da89 163e
00000070: e14f c63f 1e78 96bf e3e4 5a3f 4bbf b4be
00000080: ac25 b33d 4415 a9bf b461 133e e475 573f
00000090: a9b0 ca3b edaa b83e de94 95bf 35f6 083f
000000a0: 740b 8f3f 47e9 843e 702e 92bd 1fb8 b7bf
000000b0: 6a7f 0ebd 0a18 0d3e 5bec 8dbe ce7c 97bf
000000c0: e76d 213d abde 833f 24bf 6cbe 572f c9bf
000000d0: ef44 823e c11c 0fbf 5a6d 143f 3896 a0bf
000000e0: 1aa0 143e 5148 94bc ea29 5cbd ec2a 433f
000000f0: b98e cabe cd17 26bc 2f92 2a3f 7e92 57bd
00000100: 93cd d7bd 1d1e 5cbf 1ea1 4d3e 8550 913e
00000110: ced3 0bbf 4ccb d33e fd64 333d cfef 32be
00000120: 0ed5 80bd aa76 df3e 61ad 8b3d 9e5a 33bf
00000130: 84aa 5f3f 0edc 6e3f 7aa6 9d3e 7aa2 91bf
00000140: 1dd0 b33e bdc2 ec3f ac02 143f 3407 233d
00000150: 983b c43e 1cdb bebd 8e10 2d3f 8653 f7bd
00000160: a7a5 dabc 5bc3 0e3f b26c 58be a225 533f
00000170: f3e1 0f3f 10be f93e 2087 103e 55b3 79bd
00000180: 94b0 fb3d 314f 363f 3e0b 08be 2ba2 a43e
00000190: 7b56 b2be acf2 6c3f 1949 afbe 60a9 9c3e
000001a0: 1ad8 bcbe 3309 3dbf d7ae 473f 5294 21bf
000001b0: 284d 053f 9d1d 173f b157 71be 4be0 91bf
000001c0: 9fa3 a2be 5f76 afbe 3901 2fbf f18c 7fbf
000001d0: 35b2 24bd 0d2d cdbf 54cf c53c 9358 8a3e
000001e0: 435d 053e 3dc6 433f b4ec afbe 87a5 6a3e
000001f0: 0343 823e 890d 16bf 5db7 29bf 528f 8d3e
00000200: fb8e 293e 47bd b03d 9fb9 883e 5ecd 0dbf
00000210: e52a b03e df7e a9be 8b0c dd3e 15ad afbf
00000220: 62fc 313f 6703 253f b755 bb3e 4ce4 1d3f
00000230: 52a3 98bd 6486 c33e 97fc 15bf ed12 41be
00000240: 3716 053e a0a2 dcbf 8849 f93e c205 473f
00000250: 3a52 e2bd 68f5 f33e 1ad5 973f bf9f 003f
00000260: 3330 083f 7d66 383f c45d a73e df3d 143f
00000270: 6edd aebc 4756 a73e 9419 dc3e 38dc 40be
00000280: 4e17 043f e4b7 d83c 450f b53e 8794 963e
00000290: 5de6 243f 9c8f 6c3e 55b1 24be f069 903f
000002a0: 8971 933e 6c77 023e ded0 983f 44bb 9d3e
000002b0: 4c4b ac3f f04c 403f f649 a93d 5a62 823e
000002c0: 4f86 a73e 7f0d 8dbe 099a 64bf 03d3 bbbe
000002d0: 3b1b 35bf 46b0 313e b5f4 253f f2e3 663f
000002e0: 46ad 153f 5591 babc e133 8c3e eb9b f43e
000002f0: 6a5f 34be 93cf 6bbe d05a 89be 465a d13e
00000300: df93 f73e 6aac a33d bb9d 4d3e 44a2 ed3e
00000310: 77a0 a03e 0d9a 603f 91ec 8d3e f592 c7be
00000320: 7973 b83e f340 07be c38b 92be 99ea dd3f
00000330: c2e4 c3bd 9545 773f ffd9 1a3e 5448 3c3f
00000340: 78d7 06bf 3460 583f bd35 3b3d 1b6d 68bf
00000350: a4e0 5a3f f482 53bf 14ad 083f 63fa dd3e
00000360: 50ff f43e 2ee0 0c3f e0f8 75bf 17f8 0d40
00000370: a54e bf3e 0f49 bf3d ed9b ae3e 4498 cd3b
00000380: 1c4f d13e b55d ce3d 8027 f13e d8dc 763f
00000390: dd3c 90bd 8083 523e b479 3f3f 93e5 c33f
000003a0: 55d0 b63e 0b6c 7cbe 189b d33f e9d3 ca3d
000003b0: 14d6 4e3f 8922 31bf 5cfc 893b 84f7 28be
000003c0: d836 b4bd e1aa 013f c6df 6e3f 0ebd 433e
000003d0: 75a0 b73d 4b6e 5fbe ae79 1cbf 2f9b 83be
000003e0: e029 dc3f 0584 85bf 3800 983f 7d0b cb3e
000003f0: 4532 653e 9919 393f fac6 8abe 496e 06bf
0.23199733 -0.36064824 -0.94917077 1.1006188 -1.7567184 0.54460514 -0.32384476 0.78758323
0.18753627 -0.3421116 -1.0904834 -0.53959274 -0.044679575 -1.2000949 -0.9621687 0.05338837
-0.022240592 1.6231829 -0.16021398 0.6485662 0.3928491 0.28073907 -0.77964205 0.64143044
-0.21948399 0.41480628 0.1056057 0.14701024 1.5493127 -1.1755407 0.85505503 -0.35302195
0.0874742 -1.3209615 0.1439274 0.8416426 0.0061856103 0.36067906 -1.1686056 0.5350068
1.117537 0.25959226 -0.071377635 -1.4353064 -0.03478948 0.13778701 -0.27719387 -1.1834962
0.03941145 1.0302328 -0.2311979 -1.5717572 0.25443217 -0.5590325 0.5797936 -1.2545843
0.14514199 -0.01810089 -0.05375091 0.7623737 -0.39562014 -0.0101375105 0.6662931 -0.05262994
-0.10537257 -0.8598345 0.20080993 0.28381744 -0.54620063 0.4136604 0.04379748 -0.17474292
-0.06290637 0.4364522 0.06820179 -0.70060146 0.8736956 0.93304527 0.30791074 -1.1377709
0.35119715 1.849693 0.57816577 0.03980179 0.38326716 -0.093191355 0.67603385 -0.12076478
-0.026690317 0.5576684 -0.21135214 0.824793 0.56204146 0.4877782 0.14114046 -0.06096204
0.12289539 0.71214586 -0.13285539 0.32154974 -0.34831604 0.9255779 -0.34235457 0.30597973
-0.36883622 -0.7384216 0.7800116 -0.63116944 0.52070856 0.5902956 -0.23568608 -1.1396574
-0.31765458 -0.34269997 -0.6836124 -0.99824435 -0.040209014 -1.6029373 0.024146713 0.27020702
0.13023858 0.7647436 -0.34360278 0.22914706 0.2544175 -0.58614403 -0.66295415 0.27648407
0.16558449 0.08629852 0.26704118 -0.5539149 0.34407726 -0.33104607 0.43173632 -1.3724695
0.6952573 0.64458317 0.36588833 0.6167648 -0.07453026 0.3818847 -0.58588547 -0.18854876
0.12996756 -1.7237129 0.48688912 0.7774316 -0.1105084 0.47648168 1.1861908 0.50243753
0.53198546 0.72031385 0.32688725 0.5790691 -0.02134582 0.32683012 0.42988265 -0.18834007
0.5159806 0.026454873 0.35363212 0.29410192 0.64414006 0.23101658 -0.16083272 1.128233
0.28797558 0.12740868 1.1938741 0.30806935 1.3460479 0.751174 0.0826606 0.2546566
0.32719657 -0.2754936 -0.8929754 -0.36684427 -0.70744675 0.17352399 0.6482652 0.90191567
0.5846752 -0.022774378 0.2738333 0.47775206 -0.17614523 -0.23028402 -0.26827097 0.40889186
0.48355004 0.0799187 0.200797 0.4641286 0.31372425 0.8773506 0.27719548 -0.38979307
0.360256 -0.1320837 -0.28622255 1.7337219 -0.095651165 0.9659055 0.15122221 0.73547864
-0.5267253 0.84521794 0.045705546 -0.9079148 0.85499024 -0.82621694 0.53389096 0.43355092
0.47851038 0.5502957 -0.9608288 2.2182672 0.3736469 0.09340107 0.34103337 0.006274255
0.40880668 0.10076467 0.4710045 0.9643073 -0.07042859 0.20557976 0.7479508 1.5304435
0.3570582 -0.2465059 1.6531706 0.099037 0.8079541 -0.6919332 0.004210992 -0.1650067
-0.08799523 0.50651366 0.933102 0.19115087 0.089661516 -0.21819417 -0.6112317 -0.25704333
1.7200279 -1.0430914 1.1875067 0.39657202 0.22382458 0.72304684 -0.27104932 -0.5251203

sequential_1/dense_7/BiasAdd/ReadVariableOp f4 [19]
00000000: fa2e d43f e08b dabf 98db 9e3f 90a4 2fbf
00000010: 995e 49bf e60d 80be 46c2 78c0 ea7e 233f
00000020: b76b 7d3f 21a3 18bf 9c25 5c3f dd9b bf3e
00000030: 7549 9abe 1798 c3bd 9aff 703e 8340 c33f
00000040: 151e 103f 2e99 b83f 3087 133f
1.6576836 -1.7073936 1.2410765 -0.6861048 -0.7865997 -0.25010604 -3.8868575 0.6386553
0.98992485 -0.59623915 0.8599489 0.37423602 -0.30134168 -0.09550493 0.23535004 1.5254062
0.562959 1.4421747 0.57628155

sequential_1/dense_6/BiasAdd/ReadVariableOp f4 [16]
00000000: 78ae eabe 9994 e3bd 2329 e63f b8c0 8bbf
00000010: 61e4 41bf 7beb 1abf d589 e03e 6d1c aabe
00000020: 7fda 75bf 61b6 92be 9e38 0cbf ad05 a53e
00000030: 230c 573f cec3 f93e 2cd5 b0be 9b92 38bf
-0.45836234 -0.11112327 1.7981304 -1.0918188 -0.75739104 -0.60515565 0.43855157 -0.33224812
-0.96036524 -0.2865477 -0.5477389 0.32230893 0.84002894 0.487822 -0.34537637 -0.720987

sequential_1/dense_5/BiasAdd/ReadVariableOp f4 [32]
00000000: 66fb 5d3f 8016 9dbd 15e7 a53b b254 1a3e
00000010: feee b5be 58d4 653e 6cfe a2bf 872e 8fbf
00000020: 70a5 12bf 7bbe 80be c0a8 60bf 7a8c 84bf
00000030: 65d3 2e3e 6f17 c2be f465 75be 3372 3abe
00000040: 24e8 aa3d 0013 b33f 5393 673f fac3 44be
00000050: 0b7d 273e 1909 4abe b9d0 58bf e1ce 67be
00000060: e73b 61be 923d 323f 3a5b 8abf 271e 0dbe
00000070: 96d1 37bf dc27 2abe 995f 9a3f 0afa 593f
0.8671173 -0.07670307 0.0050629475 0.15071371 -0.355339 0.22444284 -1.2733893 -1.1186074
-0.5728369 -0.25145325 -0.8775749 -1.035537 0.17072828 -0.37908503 -0.23964673 -0.18207626
0.083450586 1.3990173 0.90459174 -0.19215384 0.16356294 -0.19730033 -0.84693485 -0.22637512
-0.21995507 0.696252 -1.080909 -0.13781033 -0.7180418 -0.16616768 1.2060424 0.85147154

sequential_1/dense_4/BiasAdd/ReadVariableOp f4 [32]
00000000: 6bc8 80bf f024 6ebd 089e ccbf fcb4 fabb
00000010: 0857 11bf abeb 7bbf c859 28bf 5708 72bf
00000020: 9f0b c3be 58ee fcbe ce1c 29bf f5ba d8be
00000030: 6661 59bf 6f7e c8be 179a 48bf a39e cfbf
00000040: 1aab 15bf 14b8 9fbc 62f6 a9bf 03f4 ddbf
00000050: 5cc4 bd3e bfe4 37be d172 2fbe ec7e 54bf
00000060: dcec c1be 171c 63bf 0b7b 9d3d 5c0c d0bf
00000070: 2b0d 53bf 59f4 fcbe bd07 54bf 753e 353e
-1.0061163 -0.058140695 -1.5985727 -0.0076509696 -0.56773424 -0.98406476 -0.65761995 -0.94543976
-0.38094804 -0.49400592 -0.6605958 -0.42330137 -0.84914243 -0.3915896 -0.7836012 -1.6220287
-0.58464205 -0.019496955 -1.3278315 -1.7340091 0.37063873 -0.17958353 -0.17133643 -0.8300617
-0.37876022 -0.88714737 0.07689484 -1.6253772 -0.8244197 -0.49405172 -0.8282431 0.17699607

sequential_1/dense_4/MatMul i1 [32, 42] scale=0.025469348 zero_point=0
00000000: 0607 0604 0008 0106 0804 01fe ff08 ff0a
00000010: ff96 0501 0004 fc07 f802 0802 fc04 f901
00000020: fc01 0805 ff00 0103 0a02 fcfe f806 feff
00000030: 01fa 04fd fa02 fe0c 040c 0309 fb00 fc08
00000040: f215 0291 0001 ff08 fe0f 010a 07fe 040b
00000050: 0209 0805 02ff 0dbf 13d8 feeb e410 fcf8
00000060: 01fd 03fa 01fd f4fc 07f2 0402 fe01 f5fd
00000070: 0cf3 0b02 faff 0302 0fff 12d2 f104 01fb
00000080: fb45 fe22 ff19 ff0b f904 f70c 030a 07a7
00000090: fc03 f702 0501 0afe 0806 f502 01fd 09fe
000000a0: 1e0a ff03 fc06 0503 0304 2828 2011 2200
000000b0: 24f3 db09 e706 f304 f6ff d901 fb06 f100
000000c0: f1fd f2f4 14ff 0705 ff02 0ae3 3dfe 5600
000000d0: 2803 08f8 f8e9 f8ff fb0a fd06 0901 08f5
000000e0: fdf8 f6f9 1406 02f8 e6fb afff 1f05 12fc
000000f0: f502 c506 1009 1105 05fb e206 feff 05fa
0.15281609 0.17828543 0.15281609 0.10187739 0.0 0.20375478 0.025469348 0.15281609
0.20375478 0.10187739 0.025469348 -0.050938696 -0.025469348 0.20375478 -0.025469348 0.25469348
-0.025469348 -2.699751 0.12734674 0.025469348 0.0 0.10187739 -0.10187739 0.17828543
-0.20375478 0.050938696 0.20375478 0.050938696 -0.10187739 0.10187739 -0.17828543 0.025469348
-0.10187739 0.025469348 0.20375478 0.12734674 -0.025469348 0.0 0.025469348 0.07640804
0.25469348 0.050938696 -0.10187739 -0.050938696 -0.20375478 0.15281609 -0.050938696 -0.025469348
0.025469348 -0.15281609 0.10187739 -0.07640804 -0.15281609 0.050938696 -0.050938696 0.30563217
0.10187739 0.30563217 0.07640804 0.22922413 -0.12734674 0.0 -0.10187739 0.20375478
-0.35657087 0.5348563 0.050938696 -2.8270977 0.0 0.025469348 -0.025469348 0.20375478
-0.050938696 0.3820402 0.025469348 0.25469348 0.17828543 -0.050938696 0.10187739 0.2801628
0.050938696 0.22922413 0.20375478 0.12734674 0.050938696 -0.025469348 0.33110154 -1.6555076
0.4839176 -1.0187739 -0.050938696 -0.5348563 -0.71314174 0.40750957 -0.10187739 -0.20375478
0.025469348 -0.07640804 0.07640804 -0.15281609 0.025469348 -0.07640804 -0.30563217 -0.10187739
0.17828543 -0.35657087 0.10187739 0.050938696 -0.050938696 0.025469348 -0.2801628 -0.07640804
0.30563217 -0.33110154 0.2801628 0.050938696 -0.15281609 -0.025469348 0.07640804 0.050938696
0.3820402 -0.025469348 0.45844826 -1.17159 -0.3820402 0.10187739 0.025469348 -0.12734674
-0.12734674 1.757385 -0.050938696 0.86595786 -0.025469348 0.6367337 -0.025469348 0.2801628
-0.17828543 0.10187739 -0.22922413 0.30563217 0.07640804 0.25469348 0.17828543 -2.266772
-0.10187739 0.07640804 -0.22922413 0.050938696 0.12734674 0.025469348 0.25469348 -0.050938696
0.20375478 0.15281609 -0.2801628 0.050938696 0.025469348 -0.07640804 0.22922413 -0.050938696
0.7640804 0.25469348 -0.025469348 0.07640804 -0.10187739 0.15281609 0.12734674 0.07640804
0.07640804 0.10187739 1.0187739 1.0187739 0.81501913 0.43297893 0.86595786 0.0
0.9168965 -0.33110154 -0.9423659 0.22922413 -0.6367337 0.15281609 -0.33110154 0.10187739
-0.25469348 -0.025469348 -0.99330455 0.025469348 -0.12734674 0.15281609 -0.3820402 0.0
-0.3820402 -0.07640804 -0.35657087 -0.30563217 0.50938696 -0.025469348 0.17828543 0.12734674
-0.025469348 0.050938696 0.25469348 -0.7386111 1.5536302 -0.050938696 2.190364 0.0
1.0187739 0.07640804 0.20375478 -0.20375478 -0.20375478 -0.585795 -0.20375478 -0.025469348
-0.12734674 0.25469348 -0.07640804 0.15281609 0.22922413 0.025469348 0.20375478 -0.2801628
-0.07640804 -0.20375478 -0.25469348 -0.17828543 0.50938696 0.15281609 0.050938696 -0.20375478
-0.6622031 -0.12734674 -2.0630171 -0.025469348 0.78954977 0.12734674 0.45844826 -0.10187739
-0.2801628 0.050938696 -1.5026915 0.15281609 0.40750957 0.22922413 0.43297893 0.12734674
0.12734674 -0.12734674 -0.7640804 0.15281609 -0.050938696 -0.025469348 0.12734674 -0.15281609

sequential_1/dense_5/MatMul i1 [32, 32] scale=0.0449807 zero_point=0
00000000: 060a fdfc 01fd f204 0102 0e05 f5fe c9fb
00000010: 03fd e2de fbfa 0ced faf7 1de4 01ff d9fd
00000020: fd1a 0601 001b 07f4 0401 e901 0a03 ed09
00000030: 3702 0009 0bfc fef6 05f9 0aff 06ff fff1
00000040: 02fb 02fd f0f7 0319 03fb 0609 0702 17ff
00000050: ffff 0f0c 0214 a6f9 fa05 01fc 0bfb 10f7
00000060: 27f1 fc0a 0b03 02cb fffd faf9 1d04 080a
00000070: f7fb 0405 feeb fcfb 0cf3 eb03 09e8 0102
00000080: e581 fcf2 040c e4f4 0bf6 05ef fb07 0303
00000090: ef00 0ce9 0202 000b fb05 d702 0001 0b06
000000a0: 0de3 fe20 f502 fffd 0601 04fa fd16 eefa
000000b0: fc1e fdfa f704 2101 fdfc 0c04 03fc feee
000000c0: 07fd 0b09 0803 0f12 0308 ee05 18fb 0509
000000d0: 0902 ed28 e8f4 c5e6 090b 07f9 fe05 f6cb
000000e0: 25f2 060c 0efb 15e9 03fc f901 1211 f903
000000f0: 00ee fbf4 f713 c70c 05f1 0de0 1d0b b302
0.2698842 0.44980702 -0.1349421 -0.1799228 0.0449807 -0.1349421 -0.6297298 0.1799228
0.0449807 0.0899614 0.6297298 0.22490351 -0.49478772 -0.0899614 -2.4739385 -0.22490351
0.1349421 -0.1349421 -1.349421 -1.5293438 -0.22490351 -0.2698842 0.5397684 -0.85463333
-0.2698842 -0.4048263 1.3044404 -1.2594596 0.0449807 -0.0449807 -1.7542473 -0.1349421
-0.1349421 1.1694982 0.2698842 0.0449807 0.0 1.214479 0.3148649 -0.5397684
0.1799228 0.0449807 -1.0345562 0.0449807 0.44980702 0.1349421 -0.85463333 0.4048263
2.4739385 0.0899614 0.0 0.4048263 0.49478772 -0.1799228 -0.0899614 -0.44980702
0.22490351 -0.3148649 0.44980702 -0.0449807 0.2698842 -0.0449807 -0.0449807 -0.6747105
0.0899614 -0.22490351 0.0899614 -0.1349421 -0.7196912 -0.4048263 0.1349421 1.1245176
0.1349421 -0.22490351 0.2698842 0.4048263 0.3148649 0.0899614 1.0345562 -0.0449807
-0.0449807 -0.0449807 0.6747105 0.5397684 0.0899614 0.89961404 -4.048263 -0.3148649
-0.2698842 0.22490351 0.0449807 -0.1799228 0.49478772 -0.22490351 0.7196912 -0.4048263
1.7542473 -0.6747105 -0.1799228 0.44980702 0.49478772 0.1349421 0.0899614 -2.3839772
-0.0449807 -0.1349421 -0.2698842 -0.3148649 1.3044404 0.1799228 0.3598456 0.44980702
-0.4048263 -0.22490351 0.1799228 0.22490351 -0.0899614 -0.94459474 -0.1799228 -0.22490351
0.5397684 -0.5847491 -0.94459474 0.1349421 0.4048263 -1.0795368 0.0449807 0.0899614
-1.214479 -5.712549 -0.1799228 -0.6297298 0.1799228 0.5397684 -1.2594596 -0.5397684
0.49478772 -0.44980702 0.22490351 -0.7646719 -0.22490351 0.3148649 0.1349421 0.1349421
-0.7646719 0.0 0.5397684 -1.0345562 0.0899614 0.0899614 0.0 0.49478772
-0.22490351 0.22490351 -1.8442087 0.0899614 0.0 0.0449807 0.49478772 0.2698842
0.5847491 -1.3044404 -0.0899614 1.4393824 -0.49478772 0.0899614 -0.0449807 -0.1349421
0.2698842 0.0449807 0.1799228 -0.2698842 -0.1349421 0.98957545 -0.8096526 -0.2698842
-0.1799228 1.349421 -0.1349421 -0.2698842 -0.4048263 0.1799228 1.4843631 0.0449807
-0.1349421 -0.1799228 0.5397684 0.1799228 0.1349421 -0.1799228 -0.0899614 -0.8096526
0.3148649 -0.1349421 0.49478772 0.4048263 0.3598456 0.1349421 0.6747105 0.8096526
0.1349421 0.3598456 -0.8096526 0.22490351 1.0795368 -0.22490351 0.22490351 0.4048263
0.4048263 0.0899614 -0.85463333 1.7992281 -1.0795368 -0.5397684 -2.6538613 -1.1694982
0.4048263 0.49478772 0.3148649 -0.3148649 -0.0899614 0.22490351 -0.44980702 -2.3839772
1.6642859 -0.6297298 0.2698842 0.5397684 0.6297298 -0.22490351 0.94459474 -1.0345562
0.1349421 -0.1799228 -0.3148649 0.0449807 0.8096526 0.7646719 -0.3148649 0.1349421
0.0 -0.8096526 -0.22490351 -0.5397684 -0.4048263 0.85463333 -2.5639 0.5397684
0.22490351 -0.6747105 0.5847491 -1.4393824 1.3044404 0.49478772 -3.463514 0.0899614
