modelcc/keypoint_classifier/keypoint_classifier.tflite (tflite, 8664 bytes, 8 tensors)

sequential/dense_3/MatMul f4 [19, 16]
000000 cb 42 75 3e e0 e6 6b 3f 74 04 a0 bf 9e c0 90 bd
       0.23951261 0.9214916 -1.2501359 -0.07067989
000010 07 43 cf be f4 c6 e2 bf c0 f3 42 3f 35 c0 3c bf
       -0.40480825 -1.7716966 0.76153183 -0.73730785
000020 2c 09 83 be d6 de b9 bf ee 4d fa bf df af cf bf
       -0.25592935 -1.4521129 -1.9555032 -1.6225547
000030 61 ad fc be aa 6b 90 be f6 6b 42 bf fc 21 fa bd
       -0.49351028 -0.2820714 -0.75945985 -0.12213513
000040 48 83 17 bf 05 7f ae be 54 0f a4 3e 27 b3 9b bf
       -0.59184694 -0.34081283 0.32042944 -1.2164048
000050 5b 5b 9c bf 33 21 19 c0 71 49 67 be 8a 97 79 3d
       -1.221538 -2.3926513 -0.2258661 0.060935535
000060 b3 91 fc 3e 98 ce f7 3b cf 09 0d 3e 38 29 fa be
       0.4932991 0.0075624697 0.13773273 -0.48859572
000070 2a f0 50 3e e1 fc 07 3f f5 0f e1 be 33 8d 90 3e
       0.20404115 0.5312024 -0.43957487 0.28232726
000080 9a f3 04 bf 1a 87 30 bf a4 7a 4c bf b6 9f 9a be
       -0.51934206 -0.6895615 -0.79874635 -0.30199975
000090 27 3f 3b 3f d4 8c e8 3e ea 62 91 be a5 98 61 3e
       0.7314324 0.45419943 -0.28395778 0.22030886
0000a0 32 e1 1f bf f2 f7 62 bf 3f a0 11 3f 59 e8 d2 3e
       -0.62452996 -0.88659585 0.5688514 0.41192892
0000b0 e6 f9 2c 3f 2b b1 7b be 87 3c e2 3b 65 f4 32 3e
       0.67568815 -0.24579303 0.006904188 0.17476042
0000c0 fa c4 87 bd 4e 0d 6c 3e 46 fa 02 3f 4b c5 6f bf
       -0.06629367 0.2305195 0.51163137 -0.9366042
0000d0 73 97 26 c0 d0 e1 23 c0 90 43 df be 40 cd 31 bf
       -2.6029937 -2.5606575 -0.43606234 -0.6945381
0000e0 30 47 db 3e d7 a1 f5 bf 60 0c 50 3f 66 f7 34 bf
       0.4282775 -1.9190015 0.8126888 -0.7069
0000f0 0e 6b 7a bf 70 fe 46 be 06 8e 34 bf f6 b0 29 3f
       -0.978196 -0.19432998 -0.7052921 0.66285646
000100 6a 22 d7 bf a5 ee 5d bf 35 ac 78 bf d3 e6 d0 3e
       -1.6807377 -0.8669227 -0.9713777 0.40801105
000110 c8 32 f8 bd 36 c4 dc bf 8e 47 ff 3e 9e 7b 34 3f
       -0.12119061 -1.7247379 0.4985928 0.70501125
000120 bc 8a 30 bf 67 f6 79 3e 8e 73 91 be 8f b9 bc be
       -0.6896169 0.24410401 -0.28408474 -0.3686032
000130 40 db ea 3e a0 c2 fc bf 44 32 cb be bd 4f e0 3e
       0.458704 -1.9746895 -0.39686787 0.43810835
000140 f8 fe 2a be 36 18 84 3e ba 42 1b be d6 28 51 bf
       -0.16698825 0.2579972 -0.15162173 -0.81702936
000150 94 fc 64 3e 9e ff ae 3e 99 c8 cb 3e 33 7b 86 be
       0.22361976 0.34179395 0.3980148 -0.2626587
000160 c8 de cc 3e 36 8f 54 bf e9 f5 ea bd ad e3 76 3e
       0.4001372 -0.8303102 -0.11472685 0.24110289
000170 18 03 56 3d 37 65 20 be 37 84 95 3e a1 b9 bf be
       0.052249044 -0.1566361 0.29202434 -0.3744631
000180 c9 d0 0c bf d3 e7 28 3f 42 af 0b 3e 74 eb 1a 3f
       -0.5500608 0.65978736 0.13641074 0.6051552
000190 ce 9b 07 3f 23 bb c7 bf 40 a8 05 bd 21 dd 16 bf
       0.52972114 -1.5603985 -0.03263116 -0.58931166
0001a0 26 56 2f bf 51 66 81 bc c6 4d 6a 3e ee 8d 4c be
       -0.6849083 -0.015795859 0.2288123 -0.19976017
0001b0 2e e9 ba be 58 0e 0a c0 16 7e 23 bf ce 18 25 bf
       -0.36506027 -2.1571255 -0.63864267 -0.64490974
0001c0 1b 45 59 bf c0 cd 5d bf 27 42 2e 3f 05 e5 b9 bf
       -0.8487107 -0.86642075 0.6806969 -1.4523016
0001d0 19 f1 8a be d7 9b 96 bf 6e 57 7b 3e 69 15 7c 3f
       -0.27137068 -1.1766309 0.2454507 0.9847017
0001e0 d3 c3 6e 3d b0 d9 75 3e dd 42 80 3f 87 09 6b be
       0.05829222 0.24008822 1.0020405 -0.22952853
0001f0 43 fb 17 bf e4 35 ea bb f6 8a c1 3e 01 8e 3d bf
       -0.5936777 -0.0071475375 0.3780133 -0.74044806
000200 2f f7 7f bd 32 f5 8e 3e fc c0 c6 bb 9e 72 b9 3e
       -0.062491592 0.27921444 -0.006065486 0.36220258
000210 90 5d db bf 7a 9a 4e 3e b4 01 6d 3e 9f b7 ad bf
       -1.7137928 0.20176116 0.23145181 -1.3571662
000220 a3 a0 d7 bf 2e 4b 92 3e 06 05 08 c0 83 8a fd 3d
       -1.6845897 0.28572983 -2.1253066 0.12379935
000230 03 db 28 3f d9 09 0c c0 9d d0 a6 be ba 91 75 3f
       0.65959185 -2.188101 -0.32581034 0.95925486
000240 3e 65 71 3f ef 3d 45 3e 38 34 ae 3e d3 53 7a be
       0.9429511 0.19261907 0.34024215 -0.24446039
000250 34 29 b5 bf 75 ef ba be 7d 59 e3 be 87 f3 43 bf
       -1.4153199 -0.36510816 -0.44404212 -0.7654347
000260 f5 a7 11 3f 9d 2b 44 3f 85 24 0c c0 1d 06 3e bf
       0.5689691 0.7662905 -2.189729 -0.7422808
000270 95 8e 4d bf 27 3c eb 3e f1 27 9e bf 9d d9 8d bf
       -0.8029569 0.4594433 -1.2355939 -1.1082035
000280 9a 68 c4 3e 9b 50 f0 be a1 4a 84 bf b6 e2 1f 3f
       0.38361055 -0.46936497 -1.0335275 0.6245531
000290 00 10 ff 3d 27 e6 eb bc c7 d8 99 bd 33 3e 83 3e
       0.12454224 -0.028796269 -0.0751205 0.25633392
0002a0 96 57 da 3e dd 95 1a c0 a0 48 fe bf f8 a0 76 bf
       0.42644948 -2.415397 -1.9865913 -0.9633937
0002b0 13 a7 eb 3e ff 61 14 3f 45 5e 30 3f 4f 2d 62 bf
       0.46025905 0.5796203 0.68893844 -0.88350385
0002c0 cc 09 41 3e 48 28 b3 bf c4 e4 19 bd ec 51 36 3f
       0.18851393 -1.3996668 -0.037571684 0.7121875
0002d0 36 9f f6 be c3 7a 2c 3e f4 50 66 bf 3b 45 aa be
       -0.48168343 0.16843705 -0.89967275 -0.33255944
0002e0 f5 c1 9f bd 7c 99 8c 3e 33 f8 34 3e 90 ec 1e 3f
       -0.07800666 0.2746085 0.17672805 0.62079716
0002f0 41 32 dd bd 66 00 ff bf f1 39 36 3f c1 61 10 3d
       -0.10800601 -1.9921997 0.7118216 0.035249475
000300 fa d2 34 3f 25 2e 83 bb 94 13 83 bd 64 d5 60 3d
       0.70634425 -0.0040033036 -0.064002186 0.054891005
000310 0d 88 c0 be 95 57 62 3d 4d e3 f9 3e 28 ec b2 3e
       -0.37603799 0.055259306 0.4880623 0.34945798
000320 67 1c 70 3d 61 d2 d9 3c a5 94 45 bf b3 97 55 bf
       0.058620837 0.026589574 -0.7717994 -0.834346
000330 bd c9 7b be f5 bc 57 bf 9f 30 55 3f d1 f3 02 be
       -0.24588676 -0.842727 0.83277315 -0.12788321
000340 ee d3 3f 3f 63 68 e7 be 3d 86 78 be ed a6 9b 3e
       0.74932754 -0.45196828 -0.24269958 0.30400792
000350 99 00 92 3e c0 f5 79 bf 25 95 c2 3e 40 2d 32 3e
       0.2851608 -0.9764061 0.38004413 0.17400074
000360 dd bf a8 bf ba 5f 68 bf cb 4f d1 3b 38 aa 2d 3f
       -1.3183552 -0.9077107 0.006387686 0.6783786
000370 7b ba 8f 3d 74 21 75 3f a0 b2 12 bf a6 83 5c bf
       0.0701799 0.9575417 -0.5730381 -0.8613838
000380 cc 6a 3c 3e 18 02 02 3f 26 48 8e be fc 32 46 3e
       0.18400115 0.50784445 -0.2778942 0.19355386
000390 52 92 8a be 42 03 59 3e 3f 3a 2b bf c4 04 5f bf
       -0.2706476 0.21192649 -0.6688575 -0.87116647
0003a0 1a 40 17 bf 51 be 51 bf 9d a7 c4 3e e6 ae 51 3f
       -0.59082186 -0.81931025 0.3840913 0.819075
0003b0 d9 f7 7b bf 5f 25 df 3e 17 39 1a 3e 85 7f 31 3f
       -0.9842506 0.435832 0.1506084 0.69335204
0003c0 37 21 91 bf b5 c6 c0 3e cd 14 6d bf d9 1b a0 be
       -1.1338261 0.376516 -0.92609864 -0.31271246
0003d0 6c 6d 40 bf f9 c4 f4 3e a2 e9 b7 bf 5a 42 ba 3e
       -0.75166965 0.47806528 -1.4368174 0.36378747
0003e0 31 d2 ee 3e 26 b4 2c be 42 c9 2b bf c3 76 9e bf
       0.46644738 -0.16865596 -0.6710397 -1.2379993
0003f0 84 9b 8f be 8a 6c e0 be 1a 98 f7 3e b0 8d 83 bf
       -0.28048337 -0.4383281 0.48358232 -1.0277615

sequential/dense_2/MatMul f4 [16, 32]
000000 3c 64 8d be 5b 2e bb bf ef 1b 66 3f 53 4b 8c 3f
       -0.27615535 -1.4623522 0.89886373 1.0960487
000010 be 15 ee be 87 2e 05 3f dc 22 0b 3e 85 43 b3 3e
       -0.46500963 0.5202412 0.13587517 0.3501245
000020 e2 e6 f0 3e 7b 44 d7 be af 8b 89 be 89 1e 1b bf
       0.4705115 -0.42044434 -0.26864383 -0.6059347
000030 c9 1d 12 bf 72 1c de 3d 4c c6 06 3f b1 cd 5e be
       -0.570767 0.10845269 0.52646327 -0.21758153
000040 4e 93 5b 3e 18 2a 46 3e 1b 01 91 3d 9a d9 2d bf
       0.21442911 0.19351995 0.07080289 -0.6791016
000050 09 e9 28 3f bd 2c 2a 3f c3 85 b4 3e 78 36 07 bf
       0.65980583 0.66474515 0.35258302 -0.5281749
000060 3a 05 5d 3f a2 2f 86 3f 18 4d 52 bd 4a b8 b8 3e
       0.863361 1.0483286 -0.051343054 0.360781
000070 63 ac 15 bf c2 52 5c be 32 5d ab bd 9f 1a 12 3d
       -0.58466166 -0.21515945 -0.08367385 0.03566992
000080 49 0b b0 be e4 45 fd 3e d1 64 4e 3e f7 c7 23 3d
       -0.3438361 0.49467385 0.20155646 0.039985623
000090 c8 0a 23 3f 27 6e a0 3f e5 61 18 bd 04 41 48 be
       0.63688326 1.2533616 -0.037202735 -0.19556051
0000a0 5b e5 88 3f 55 2b 03 be 8b c0 af 3d 35 6b 5c 3f
       1.0694994 -0.12809499 0.085816465 0.86101085
0000b0 ff 47 a1 3e 16 cf b1 3e 66 6a 95 bf c0 52 e4 3d
       0.3150024 0.34728307 -1.1673095 0.11148596
0000c0 65 0d 13 3f ef 74 0c bf fd c0 47 be 87 a7 f4 3d
       0.57442313 -0.54865927 -0.19507213 0.11946016
0000d0 05 94 fe be ee 25 43 3f 17 2f c6 bf 95 32 65 3f
       -0.49722305 0.7622975 -1.5483121 0.8953031
0000e0 9c d4 74 3b ea 55 93 3f 21 8e e3 3e fa 84 97 3e
       0.003735817 1.1510594 0.44444373 0.2959364
0000f0 47 cc a8 3e 1a 27 01 3f 8d e4 e8 be 85 1f ea be
       0.3296835 0.5045029 -0.4548687 -0.45727172
000100 e4 7e bb 3e 20 da 24 bf 34 78 b6 3f 89 fc a9 3e
       0.36620247 -0.6439533 1.4255433 0.33200482
000110 36 66 49 3f b9 dc f0 bd 47 0f 69 be f3 6e 65 3f
       0.78671587 -0.117608495 -0.22759734 0.8962242
000120 e8 0e a3 be 00 a5 ba bd 35 44 45 bd fd 9e 0b bf
       -0.3184731 -0.091135025 -0.04816075 -0.5453947
000130 81 b0 22 3f 0c 9f 24 3f ab b5 56 bf df e7 b2 3e
       0.63550574 0.64305186 -0.83870953 0.3494253
000140 6c 5d 86 3e 7f 66 04 3f e2 bf 59 3f d2 83 81 3f
       0.2624315 0.51718897 0.85058415 1.0118353
000150 eb 6b 97 3f 87 96 65 bf 6e 91 a8 3f ac a2 66 3e
       1.1829809 -0.8968281 1.3169382 0.22522992
000160 14 30 ee 3e 62 72 c3 be 4d 37 86 be b1 71 e3 be
       0.46521056 -0.38173205 -0.26214066 -0.44422677
000170 e2 8c 82 bf 30 f2 3f 3f 8f 68 40 bf fb 18 6a 3e
       -1.0199244 0.74978924 -0.75159544 0.22861092
000180 f0 c8 48 3e d4 7d 1e bd d0 a6 98 bf ee 31 9c 3d
       0.19607902 -0.038694218 -1.1925907 0.07626711
000190 96 91 50 bf 5f d2 df 3e ab 8f 13 3f d0 15 5a 3c
       -0.81472147 0.43715188 0.57641095 0.013310865
0001a0 28 2f 73 3d f3 e8 74 be 70 4d 24 3f 82 a2 82 be
       0.059371144 -0.23916988 0.6418066 -0.2551461
0001b0 d1 3d 05 bf a7 32 48 3d 4b 56 04 3e 9a 54 f3 bd
       -0.5204745 0.04887643 0.12923543 -0.11881371
0001c0 c2 e7 67 bd 07 ef 1c 3f 38 14 5b bf da bf cd bd
       -0.056617506 0.61302227 -0.85577726 -0.100463584
0001d0 0e b4 15 3f 5d 32 ad be 69 cd 09 be b9 e9 3c be
       0.58477867 -0.33827487 -0.13457264 -0.18448533
0001e0 a9 85 a1 be 4f d5 68 be 88 49 b3 3e 4f 25 09 bf
       -0.31547287 -0.22737621 0.35017037 -0.53572553
0001f0 0b 6f 88 3f fe 07 4e 3e bc 4c c6 3d ea a8 29 3f
       1.0658888 0.20120236 0.09682605 0.6627337
000200 36 e1 24 3f d5 95 ac bd 01 e1 84 be 98 59 82 bf
       0.64406145 -0.08427016 -0.25952914 -1.0183592
000210 c0 2a 2a 3f ac db 71 3e 2d 00 27 3f ac 9d 2b bf
       0.6647148 0.23618954 0.65234643 -0.67037463
000220 92 07 2c bf 13 f8 bf bd 76 17 0c 3f 49 6a 8f 3f
       -0.6719905 -0.09373488 0.547233 1.1204311
000230 bb ca e0 3e 49 98 05 3f c6 af de 3e 42 fb d7 3d
       0.4390467 0.52185494 0.4349348 0.105459705
000240 7f 53 24 bf 95 67 3f 3e 0d 28 12 3f 45 c5 00 3e
       -0.64189905 0.18691857 0.5709236 0.12575252
000250 7d ae 35 bf 13 1f 3b bf 85 eb e7 3d de ab b3 3e
       -0.70969373 -0.7309429 0.11324219 0.35092062
000260 74 c0 f9 3e 10 0a c3 3e 37 61 99 3e 6a 34 17 3f
       0.48779643 0.38093615 0.29956982 0.5906435
000270 e7 7a 09 be 12 94 4c bf 6e 38 82 3f 29 19 aa 3e
       -0.1342579 -0.7991344 1.0173471 0.3322232
000280 32 4d 79 be 03 5c e5 3e b7 b7 47 be 9a 53 e5 3e
       -0.24345854 0.44796762 -0.19503675 0.44790345
000290 ff 9d 9f bc b0 96 9a 3d 77 71 cc be 1c dc ea be
       -0.019484518 0.075482726 -0.39930317 -0.45871055
0002a0 39 87 8b 3d ad a3 0a 3f 3e c1 00 bd f5 f4 3b bf
       0.06812901 0.54156 -0.03143429 -0.7342065
0002b0 0c 2e 54 be 8c 54 d7 be 91 c2 fa bd 8b 81 c2 3e
       -0.2072069 -0.42056692 -0.12244142 0.37989458
0002c0 63 26 db 3b 58 71 fe be 02 d9 d2 be 30 2f 9e be
       0.0066879257 -0.4969585 -0.4118119 -0.30895376
0002d0 2d 7b 03 3f f3 44 28 3f f5 79 a8 be 8c 77 8a 3e
       0.51359826 0.6573021 -0.32905546 0.27044332
0002e0 95 c1 0d 3f 4d 50 0c 3f 3b 29 d1 bd 76 00 09 3f
       0.5537351 0.5481003 -0.10212942 0.5351633
0002f0 a0 43 0a 3f 4a 41 cb be ee 14 9e 3e 36 4f 43 3f
       0.5400944 -0.3969825 0.30875343 0.7629274
000300 5f 4b 43 3f f4 73 b3 3f 3e a3 82 bf 74 fc 95 be
       0.7628688 1.4019761 -1.0206068 -0.2929417
000310 df 82 41 3e fa 92 01 3f f1 25 0c 3f 1e 06 b6 be
       0.1889758 0.50614893 0.54745394 -0.35551542
000320 9a 2e 46 3e 1e 55 fb 3e 10 ab a3 3e 61 fd a6 3f
       0.19353715 0.49088377 0.31966448 1.3046075
000330 12 4a 3c bf 96 1f d7 3e 2b c5 fa 3e 80 9a b6 be
       -0.7355052 0.42016286 0.48978552 -0.3566475
000340 86 44 c1 3e 93 c0 3f be 69 6a db 3e bc c7 95 be
       0.37747592 -0.18725805 0.42854622 -0.29253948
000350 9a 0c 05 3f 31 5e 98 be ec 15 97 3f 4b 52 13 bf
       0.51972353 -0.29759362 1.1803565 -0.57547444
000360 ba 48 06 be ed f3 a3 3e e1 27 45 3e 80 fd c7 be
       -0.1311368 0.32022038 0.19253494 -0.39060593
000370 8b 44 b5 be 69 3e 2f 3d 05 5b d0 bd ef da e7 be
       -0.35403857 0.04278413 -0.101736106 -0.4528422
000380 28 7b 50 3f 43 fd a1 be fe cf 53 bf fb 45 49 be
       0.8143792 -0.31638536 -0.82739246 -0.19655602
000390 9d 4c 55 3f fa 1e 59 be 27 cf dc bd 35 9d e5 3e
       0.8332003 -0.21203223 -0.10781699 0.44846502
0003a0 c2 3a 8d 3d af 88 85 be c7 59 59 3d 1e df 66 3e
       0.06895973 -0.26080844 0.053064134 0.2254605
0003b0 14 dc 4e 3e a6 30 8b be f2 30 82 3e 07 18 bd 3e
       0.2020114 -0.27185553 0.25427967 0.36932394
0003c0 4d c5 0d bf 7e fe ae 3e e8 12 9f 3f 88 78 c2 bf
       -0.5537918 0.34178537 1.2427645 -1.5193033
0003d0 95 98 95 3f 48 7d 11 3f ed c4 bd 3f ca 0f a0 be
       1.1687189 0.5683179 1.4825722 -0.31262046
0003e0 64 7f 01 bf 37 6a 4c bf 12 5b 8d 3d f8 b0 04 3f
       -0.5058501 -0.7984957 0.06902136 0.5183253
0003f0 1c 75 0e be e6 69 e2 be dd 9f c8 3e a7 18 10 3f
       -0.13911861 -0.4422142 0.39184466 0.56287616

sequential/dense/BiasAdd/ReadVariableOp f4 [32]
000000 80 88 79 be 9b dc 83 3e a4 f3 01 be 41 0b 2d 3e
       -0.24368477 0.25754246 -0.12690598 0.16898824
000010 7d 71 6c be 50 5d 15 bf 77 fa 06 3e ed fc ed bb
       -0.23090167 -0.5834551 0.13181482 -0.007262817
000020 a4 e2 94 3e b5 b2 b6 be 4c 58 b0 3e d3 df 00 3e
       0.29079163 -0.35683218 0.34442365 0.12585382
000030 a1 17 5d 3e 4f db 4f 3e 65 97 36 bd 0f 5e 1c 3f
       0.21591045 0.20298503 -0.044577975 0.6108102
000040 4b 54 2d 3e de 27 78 3e d8 e9 01 be 7b 86 87 3b
       0.16926686 0.24233958 -0.1268686 0.0041359044
000050 e0 82 93 bd d9 12 78 3b 0e d7 6d 3e 26 98 a7 be
       -0.07202697 0.003785303 0.23226568 -0.32733268
000060 57 63 90 3d 42 61 fe 3e 14 4d ec bc 91 07 da 3d
       0.070501976 0.49683577 -0.028845347 0.106459744
000070 a6 9d c7 3d d3 37 61 3c 3e 78 6b be 3f 91 c3 3e
       0.09746866 0.01374622 -0.22995088 0.3819675

sequential/dense_3/BiasAdd/ReadVariableOp f4 [19]
000000 69 87 d2 3e 99 90 44 be ec 4d f8 3d bb 05 0c be
       0.41118935 -0.19195785 0.121242374 -0.13674061
000010 eb 2c a7 be ff 1d 89 be 75 5b ca be f1 de 4f 3d
       -0.32651457 -0.26780698 -0.395229 0.050749723
000020 7d 13 51 3d 9c 54 e6 bd af 86 18 be 1c 82 93 bd
       0.051043976 -0.11246607 -0.14895128 -0.07202551
000030 d9 5c 33 bd 74 0d a7 3d 34 2c 11 3f d7 fb 94 3e
       -0.04378972 0.08156863 0.56708074 0.2909839
000040 c2 e5 a4 3d 1b 37 d2 3d e0 49 07 be
       0.08051635 0.10264417 -0.13211775

sequential/dense_2/BiasAdd/ReadVariableOp f4 [16]
000000 56 30 22 3e 3d d2 3c 3e 36 67 3b be ad 16 16 bc
       0.15838751 0.18439575 -0.1830109 -0.00916068
000010 77 2d 25 3e 8a 3f 99 3e e9 76 80 be f1 20 4a 3d
       0.16130625 0.2993129 -0.2509072 0.04934782
000020 f7 a5 47 be 76 ec 29 be c6 5b 8e 3e 89 0e 96 3d
       -0.19496904 -0.16594109 0.27804393 0.07326991
000030 64 85 87 3d e8 75 fc 3e c7 17 58 3d 9a 8e 68 3e
       0.06617239 0.49308705 0.05275705 0.22710648

sequential/dense_1/BiasAdd/ReadVariableOp f4 [32]
000000 0e ea b3 3d 51 c5 45 3e 5a 6c 8c 3e 95 70 49 3d
       0.08784877 0.19313551 0.27426416 0.049179632
000010 9c 20 1c 3e e9 34 92 3c 69 c5 1f be a0 42 54 bd
       0.15246814 0.017847495 -0.1560265 -0.05182135
000020 6a ad f8 bc 8d 9c 7f bd 05 67 d0 be 8d 2b 89 3e
       -0.030356128 -0.062405158 -0.40703598 0.2679104
000030 3c ca b8 3d 7d a9 bd 3d 01 e5 c0 3e e7 70 0b 3d
       0.09022948 0.09260843 0.37674716 0.03404322
000040 f6 af 8d 3e a7 f1 93 3d 24 38 0a 3e c6 f7 61 be
       0.2767331 0.07223826 0.13497978 -0.22067174
000050 a1 5b 48 be 46 11 e8 3e 07 66 24 be 79 fd a3 3e
       -0.19566204 0.4532568 -0.16054545 0.32029322
000060 8d ab c0 3e 98 3e b8 3e f6 45 29 3e 47 1d db 3d
       0.37630883 0.35985255 0.16530594 0.106989436
000070 19 88 3a 3e a5 fd 3b be a2 58 ea 3e 60 dd 07 3e
       0.1821598 -0.18358476 0.45770746 0.13268042

sequential/dense/MatMul i1 [32, 42] scale=0.010147827 zero_point=0
000000 fe 00 0c c7 dd e3 ca f4 d2 fd fb f1 01 d9 04 d1
       -0.020295653 0.0 0.12177392 -0.5784261 -0.35517395 -0.29428697 -0.54798263 -0.12177392 -0.46680003 -0.03044348 -0.050739132 -0.1522174 0.010147827 -0.39576524 0.040591307 -0.47694784
000010 2c eb e5 d9 cc 0a fe 0c 22 41 e3 ee ce 02 e8 12
       0.44650438 -0.21310437 -0.27399132 -0.39576524 -0.527687 0.101478264 -0.020295653 0.12177392 0.3450261 0.6596087 -0.29428697 -0.18266088 -0.50739133 0.020295653 -0.24354784 0.18266088
000020 13 11 fa 16 fc 20 16 e7 09 aa 00 f6 dd e8 da 07
       0.1928087 0.17251305 -0.06088696 0.22325219 -0.040591307 0.32473046 0.22325219 -0.25369567 0.09133044 -0.8727131 0.0 -0.101478264 -0.35517395 -0.24354784 -0.3856174 0.07103479
000030 d4 15 d6 01 f7 28 08 f3 0a 12 00 e8 0c 0d 08 d8
       -0.44650438 0.21310437 -0.42620873 0.010147827 -0.09133044 0.40591305 0.081182614 -0.13192175 0.101478264 0.18266088 0.0 -0.24354784 0.12177392 0.13192175 0.081182614 -0.40591305
000040 ef bc f3 a8 19 09 fe d7 01 d6 05 c9 0f 1e 24 02
       -0.17251305 -0.6900522 -0.13192175 -0.89300877 0.25369567 0.09133044 -0.020295653 -0.4160609 0.010147827 -0.42620873 0.050739132 -0.55813044 0.1522174 0.3044348 0.36532176 0.020295653
000050 08 f9 12 fb f4 ef 00 34 07 e9 50 f2 7a e4 e9 cc
       0.081182614 -0.07103479 0.18266088 -0.050739132 -0.12177392 -0.17251305 0.0 0.527687 0.07103479 -0.23340002 0.8118261 -0.14206958 1.2380348 -0.28413916 -0.23340002 -0.527687
000060 ec 05 e8 18 1d 1f 03 cc 18 db ef ee 15 d1 05 de
       -0.20295653 0.050739132 -0.24354784 0.24354784 0.29428697 0.31458262 0.03044348 -0.527687 0.24354784 -0.3754696 -0.17251305 -0.18266088 0.21310437 -0.47694784 0.050739132 -0.3450261
000070 db 0b f5 ef 09 f8 fa 0f bf 0a 9c f3 ce d8 0b f2
       -0.3754696 0.111626096 -0.111626096 -0.17251305 0.09133044 -0.081182614 -0.06088696 0.1522174 -0.6596087 0.101478264 -1.0147827 -0.13192175 -0.50739133 -0.40591305 0.111626096 -0.14206958
000080 26 76 07 56 09 59 ef 59 03 26 00 e6 ff f9 1a a2
       0.3856174 1.1974436 0.07103479 0.8727131 0.09133044 0.9031566 -0.17251305 0.9031566 0.03044348 0.3856174 0.0 -0.2638435 -0.010147827 -0.07103479 0.2638435 -0.9538957
000090 f6 0e 10 fd ed ea ec f7 eb 1a e0 11 0e f8 ef b0
       -0.101478264 0.14206958 0.16236523 -0.03044348 -0.1928087 -0.22325219 -0.20295653 -0.09133044 -0.21310437 0.2638435 -0.32473046 0.17251305 0.14206958 -0.081182614 -0.17251305 -0.8118261
0000a0 00 1c fe 08 0b d2 ec a1 f2 fa ee 90 0c f0 1b e4
       0.0 0.28413916 -0.020295653 0.081182614 0.111626096 -0.46680003 -0.20295653 -0.96404356 -0.14206958 -0.06088696 -0.18266088 -1.1365566 0.12177392 -0.16236523 0.27399132 -0.28413916
0000b0 08 06 31 f6 f8 f7 fb e8 d4 3d 20 00 19 01 42 f4
       0.081182614 0.06088696 0.49724352 -0.101478264 -0.081182614 -0.09133044 -0.050739132 -0.24354784 -0.44650438 0.6190174 0.32473046 0.0 0.25369567 0.010147827 0.6697566 -0.12177392
0000c0 37 e8 3a 15 0d ed 2c e4 4a ef 12 00 f1 ea 2b 04
       0.55813044 -0.24354784 0.58857393 0.21310437 0.13192175 -0.1928087 0.44650438 -0.28413916 0.7509392 -0.17251305 0.18266088 0.0 -0.1522174 -0.22325219 0.43635654 0.040591307
0000d0 61 3c 12 fa 48 e8 07 d1 0f fe 26 20 1d d4 2e ca
       0.9843392 0.6088696 0.18266088 -0.06088696 0.7306435 -0.24354784 0.07103479 -0.47694784 0.1522174 -0.020295653 0.3856174 0.32473046 0.29428697 -0.44650438 0.46680003 -0.54798263
0000e0 10 cb 03 09 41 fc 1c d0 fb 0e e1 28 43 ec fc e7
       0.16236523 -0.5378348 0.03044348 0.09133044 0.6596087 -0.040591307 0.28413916 -0.48709568 -0.050739132 0.14206958 -0.31458262 0.40591305 0.6799044 -0.20295653 -0.040591307 -0.25369567
0000f0 e8 ef be 0e f3 eb f5 cc ee d8 dc 12 f7 e9 1b 02
       -0.24354784 -0.17251305 -0.6697566 0.14206958 -0.13192175 -0.21310437 -0.111626096 -0.527687 -0.18266088 -0.40591305 -0.36532176 0.18266088 -0.09133044 -0.23340002 0.27399132 0.020295653

sequential/dense_1/MatMul i1 [32, 32] scale=0.0114282435 zero_point=0
000000 df 15 16 1e 31 03 f2 0f 02 34 ff 3e db ba f9 1d
       -0.37713203 0.23999311 0.25142136 0.34284732 0.5599839 0.03428473 -0.1599954 0.17142366 0.022856487 0.5942687 -0.0114282435 0.7085511 -0.422845 -0.79997706 -0.0799977 0.33141905
000010 1a ca 25 2a db f6 12 19 f3 f3 09 0c 2d f9 5c b4
       0.29713434 -0.61712515 0.422845 0.47998622 -0.422845 -0.11428244 0.20570838 0.28570607 -0.14856717 -0.14856717 0.10285419 0.13713892 0.51427096 -0.0799977 1.0513984 -0.8685465
000020 ff dc 15 b8 1b df 23 f2 07 27 38 e8 28 ef 28 c3
       -0.0114282435 -0.41141677 0.23999311 -0.82283354 0.30856258 -0.37713203 0.39998853 -0.1599954 0.0799977 0.4457015 0.6399816 -0.27427784 0.45712975 -0.19428013 0.45712975 -0.6971229
000030 e3 1b 50 a9 1a ee 23 1d df 64 0a a1 0f 2f 50 eb
       -0.33141905 0.30856258 0.9142595 -0.9942572 0.29713434 -0.20570838 0.39998853 0.33141905 -0.37713203 1.1428243 0.11428244 -1.0856831 0.17142366 0.53712744 0.9142595 -0.23999311
000040 af a5 21 f0 cb 01 35 2a 03 f3 cd e8 ff 54 ee ec
       -0.92568773 -1.0399702 0.37713203 -0.1828519 -0.6056969 0.0114282435 0.6056969 0.47998622 0.03428473 -0.14856717 -0.58284044 -0.27427784 -0.0114282435 0.95997244 -0.20570838 -0.22856487
000050 34 0a ef 0c fa 36 15 ef f7 e2 0e e9 61 dd c6 46
       0.5942687 0.11428244 -0.19428013 0.13713892 -0.06856946 0.61712515 0.23999311 -0.19428013 -0.10285419 -0.34284732 0.1599954 -0.2628496 1.1085396 -0.39998853 -0.6628381 0.79997706
000060 37 d4 e0 f6 c6 fe ed 23 0d dc 18 16 3b 14 18 0c
       0.6285534 -0.5028427 -0.3657038 -0.11428244 -0.6628381 -0.022856487 -0.21713662 0.39998853 0.14856717 -0.41141677 0.27427784 0.25142136 0.67426634 0.22856487 0.27427784 0.13713892
000070 0d 06 f6 e4 1b 58 04 35 14 30 dc 0e ff e0 b8 3e
       0.14856717 0.06856946 -0.11428244 -0.3199908 0.30856258 1.0056854 0.045712974 0.6056969 0.22856487 0.5485557 -0.41141677 0.1599954 -0.0114282435 -0.3657038 -0.82283354 0.7085511
000080 ec 17 3d 0f e3 f5 24 2f 2d f3 19 f4 c8 e0 d9 3d
       -0.22856487 0.2628496 0.6971229 0.17142366 -0.33141905 -0.12571068 0.41141677 0.53712744 0.51427096 -0.14856717 0.28570607 -0.13713892 -0.6399816 -0.3657038 -0.4457015 0.6971229
000090 3a ef e0 12 1e 06 23 f8 f7 b5 32 f5 61 f5 19 ce
       0.6628381 -0.19428013 -0.3657038 0.20570838 0.34284732 0.06856946 0.39998853 -0.09142595 -0.10285419 -0.85711825 0.57141215 -0.12571068 1.1085396 -0.12571068 0.28570607 -0.57141215
0000a0 f9 04 d2 57 f2 13 30 17 29 18 fd fc 00 44 49 fa
       -0.0799977 0.045712974 -0.5256992 0.9942572 -0.1599954 0.21713662 0.5485557 0.2628496 0.46855798 0.27427784 -0.03428473 -0.045712974 0.0 0.77712053 0.8342618 -0.06856946
0000b0 28 f9 10 ff f3 0b 12 cc d1 31 2a 1e f1 e9 07 00
       0.45712975 -0.0799977 0.1828519 -0.0114282435 -0.14856717 0.12571068 0.20570838 -0.5942687 -0.53712744 0.5599839 0.47998622 0.34284732 -0.17142366 -0.2628496 0.0799977 0.0
0000c0 1c 2e 16 1f 1e 12 1a d5 ec 07 e7 ef 0f c2 1e c4
       0.3199908 0.5256992 0.25142136 0.35427555 0.34284732 0.20570838 0.29713434 -0.49141446 -0.22856487 0.0799977 -0.28570607 -0.19428013 0.17142366 -0.7085511 0.34284732 -0.68569463
0000d0 31 df 10 31 11 32 ff 06 07 27 f0 3a 0b 32 f8 db
       0.5599839 -0.37713203 0.1828519 0.5599839 0.19428013 0.57141215 -0.0114282435 0.06856946 0.0799977 0.4457015 -0.1828519 0.6628381 0.12571068 0.57141215 -0.09142595 -0.422845
0000e0 2e eb 2b ef 02 da 28 16 f8 ec ba 15 f1 25 01 48
       0.5256992 -0.23999311 0.49141446 -0.19428013 0.022856487 -0.43427324 0.45712975 0.25142136 -0.09142595 -0.22856487 -0.79997706 0.23999311 -0.17142366 0.422845 0.0114282435 0.82283354
0000f0 78 21 f5 09 05 3a 2a f1 01 dd 21 f6 20 02 c5 e3
       1.3713893 0.37713203 -0.12571068 0.10285419 0.05714122 0.6628381 0.47998622 -0.17142366 0.0114282435 -0.39998853 0.37713203 -0.11428244 0.3657038 0.022856487 -0.67426634 -0.33141905
