model/point_history_classifier/point_history_classifier.tflite (tflite, 6400 bytes, 6 tensors)

sequential/dense/BiasAdd/ReadVariableOp f4 [24]
000000 d6 0b 58 be 15 1a 28 be 22 ee 77 be 8c 12 ca 3c
       -0.21098265 -0.164162 -0.24211934 0.024667047
000010 66 3b 07 3c 71 f5 4e be c0 7f 7b be b5 7d 66 be
       0.008253908 -0.20210816 -0.24560452 -0.22508891
000020 8c b7 6c be c4 c9 11 3c d4 91 74 be ed 94 69 be
       -0.23116893 0.008898202 -0.23883754 -0.22810717
000030 eb fe 5b be 9c 01 d0 3b 9c dd 2b 3b 6a f3 ad be
       -0.21483962 0.006347848 0.0026224619 -0.33974773
000040 7d 03 6b be 8c 0a 9d bd 6f cb 3e 3e 19 bf 5d bb
       -0.2295055 -0.07668027 0.18632291 -0.0033835827
000050 69 61 90 3e a3 82 d4 3b 3f 34 62 be 8a ff 5e 3c
       0.28199318 0.0064852997 -0.22090243 0.01361073

sequential/dense_2/BiasAdd/ReadVariableOp f4 [3]
000000 ff 75 2d be 8a 30 a7 3e 2e 8c b1 be
       -0.16939543 0.3265422 -0.3467726

sequential/dense_1/BiasAdd/ReadVariableOp f4 [10]
000000 3f ca 57 bf f8 86 36 3f 0d cb f9 3e b9 3e 93 3e
       -0.8429298 0.71299696 0.48787728 0.2875879
000010 02 de 2a 3f c1 71 02 3f 09 ac 4d 3e 49 fa 04 3f
       0.6674501 0.50954825 0.20085157 0.51944405
000020 b3 02 13 3f 9a 91 0c 3f
       0.57425994 0.5490967

sequential/dense/MatMul f4 [24, 32]
000000 08 c7 56 3e 4e cd f8 bd 04 96 64 bf 13 11 12 bf
       0.20974362 -0.12148534 -0.89291406 -0.57057303
000010 50 1f c0 bf 2b 2e 09 bf d7 34 75 bf f8 e7 22 3e
       -1.5009556 -0.5358607 -0.9578375 0.15908802
000020 4e 60 5a bf 71 09 bf 3b d7 a9 25 bf 03 81 ee 3d
       -0.853032 0.005829983 -0.6471228 0.11645701
000030 86 97 ee be e2 14 07 3e 39 40 9b be 83 c0 0f 3e
       -0.46599978 0.1319156 -0.30322435 0.14038281
000040 d7 b5 e1 bd cb 24 4c 3e 5c c3 8c bd 1b fc 5a 3e
       -0.11021011 0.1993591 -0.06873199 0.21385233
000050 f1 ec 1d 3d d7 2b 30 3e 04 da 3e 3e d8 04 e5 3d
       0.038556043 0.17204224 0.18637854 0.111825645
000060 90 e5 66 3e 40 b1 7d 3e 88 be ac 3e 5a eb 25 3e
       0.22548509 0.24774647 0.33739114 0.16203061
000070 4f 74 dd 3e 8b a3 25 3e 62 3d fd 3e 08 a9 15 3e
       0.432528 0.16175668 0.49460894 0.14615262
000080 75 01 85 be 9d f5 8b be b3 c9 ca bf 1f 2e d4 be
       -0.25977674 -0.27335826 -1.5842804 -0.41441438
000090 13 15 08 c0 15 37 85 bf f7 4e e1 bf 70 a7 5e bf
       -2.1262863 -1.0407435 -1.7602223 -0.8697424
0000a0 d7 62 00 c0 f3 53 4a bf 94 d4 bd bf 61 3b d8 be
       -2.0060327 -0.79034346 -1.4830499 -0.42232803
0000b0 73 9d a1 bf 77 75 2a bf 04 30 21 bf 7e c3 1c bf
       -1.2626175 -0.6658549 -0.6296389 -0.612358
0000c0 b7 c3 65 bf 32 ad 3e bf 19 4b 2e bf ad 1f fa be
       -0.8975176 -0.74483025 -0.6808334 -0.48852292
0000d0 8d eb 08 bf bd 61 fe be 21 5d 9d be ee c0 4c bf
       -0.5348442 -0.49683943 -0.30735114 -0.7998189
0000e0 8c 55 d1 bd e1 ad d5 be 3c 3c e2 3d 85 ae f0 be
       -0.10221395 -0.41734222 0.11046645 -0.47008148
0000f0 ea 90 59 3e 98 1f 8e be da 9c 99 3e ba 87 b8 3d
       0.21246687 -0.2775848 0.3000248 0.09010263
000100 a8 f9 4d 3d 24 40 8a 3e 81 95 e1 3e 4f 59 a0 be
       0.05028692 0.2700206 0.44059375 -0.31318137
000110 a5 d9 a6 be 29 f6 98 bf 28 93 a9 be 6b cc 88 bf
       -0.32587925 -1.1950122 -0.33120084 -1.0687383
000120 17 ae fd be 1d 28 f5 be d0 13 06 bf f3 e0 41 bf
       -0.49546883 -0.47882167 -0.5237398 -0.7573387
000130 3c 17 f1 be e9 9e c1 be 80 71 0a bf 4a 6e 9f bd
       -0.4708804 -0.3781655 -0.5407944 -0.07784708
000140 04 1d e9 be 73 33 ea bb 21 e1 88 be f5 6a 61 bd
       -0.4552995 -0.0071472465 -0.2673426 -0.055033643
000150 f4 65 36 be 64 43 39 3d 65 06 90 bd 71 7f 1e 3e
       -0.1781233 0.045230284 -0.0703247 0.15478303
000160 1c 9c 1b 3d ed b3 b8 3e ca 0d 10 3e db a2 43 3e
       0.037990674 0.36074772 0.1406776 0.19105093
000170 d4 ec 1c 3e 1d b3 a3 3e 12 5a 61 3e 4a 67 13 3f
       0.15324718 0.3197259 0.22007015 0.5757948
000180 00 72 a8 3b df b1 3e be e7 3e 13 3f e0 7a 20 bf
       0.005140543 -0.1862254 0.57517856 -0.6268749
000190 5a 43 4c 3f 40 c9 c8 be 91 85 9a 3e d4 a8 0c be
       0.7979027 -0.39216042 0.30180028 -0.13736278
0001a0 dc cb d0 3e 89 6d 88 be ca 88 7b 3e 50 38 f0 bd
       0.40780532 -0.2664607 0.245639 -0.11729491
0001b0 96 e4 0f 3e 77 2f 5f 3e 28 84 dd bd 36 86 be 3e
       0.14052042 0.2179545 -0.108162224 0.3721177
0001c0 c1 fe fc bd c4 13 86 3e d8 d6 fe bd a5 c4 f6 3e
       -0.12353278 0.26186955 -0.12443322 0.48196903
0001d0 7a 08 a8 bc 4b 9a 08 3f 96 48 a3 be be 94 84 3e
       -0.020511854 0.5336043 -0.31891316 0.2589473
0001e0 22 de 10 bf 8b 78 0e 3f 6c 3d de be a6 d2 02 3f
       -0.5658895 0.55652684 -0.43406236 0.51102674
0001f0 40 73 30 bf 7a 99 f9 3a 6f 54 3c bf 89 bd ad bd
       -0.6892586 0.0019042932 -0.73566335 -0.084834166
000200 fc 11 77 3e fa a7 0a be 9b 01 14 bb 9d e9 32 3f
       0.24127954 -0.1354064 -0.0022583965 0.69887716
000210 39 f1 68 be 9a 1d a1 3f 0e c5 6d be ed 3b 87 3f
       -0.22748269 1.2587159 -0.23219702 1.0565163
000220 15 dd 73 be 07 c2 24 3f 32 c0 82 bc f9 41 50 3f
       -0.23814805 0.6435856 -0.015960786 0.81350666
000230 f3 ce e1 bc 1b 99 07 3f 5c d4 d0 3b 69 79 b2 3e
       -0.027564501 0.52967995 0.0063729715 0.34858254
000240 56 04 0c 3e 4a 8b ea 3d 4d 40 41 3e d2 f9 9a 3b
       0.13673529 0.114523485 0.18872185 0.004729488
000250 71 a2 46 3e af 65 fc bd da 9d 62 3e a1 89 08 be
       0.19397904 -0.12324082 0.22130528 -0.13333751
000260 40 c2 96 3e 2a 60 a8 be dd fe 9f 3e 62 e7 bd be
       0.29445076 -0.32885867 0.31249133 -0.37090594
000270 cd e9 a6 3e 5e 79 07 bf ef e9 a3 3e e9 37 12 bf
       0.3260025 -0.52919567 0.32014415 -0.5711656
000280 78 c4 e5 bd 60 a5 11 3d a3 ba 8d 3f c2 e7 63 3f
       -0.11219114 0.035558105 1.1072582 0.8902551
000290 c2 fa 6c 3f 32 72 f1 3e 78 0b 90 3f 27 1e a5 3e
       0.92570126 0.47157437 1.12535 0.32249567
0002a0 98 75 61 3f 8c 61 e3 bd b0 52 44 3f 5d 8c 59 3e
       0.8807006 -0.1110259 0.7668867 0.2124495
0002b0 6c 79 29 3f 43 c2 d0 3d 3c 78 0a 3f d3 50 27 be
       0.662009 0.101933025 0.54089713 -0.16339426
0002c0 1e cd b8 3e 6c 0c 6a be ba ae 40 3e 39 15 42 be
       0.36093992 -0.22856301 0.18816653 -0.18953408
0002d0 d2 38 f8 3b 48 90 47 be df b9 4c be 7a 3c 3c be
       0.007575133 -0.19488633 -0.19992779 -0.18382445
0002e0 d2 4f c8 be 7d 74 78 be f0 f9 dc be c4 64 58 be
       -0.39123398 -0.24263187 -0.43159437 -0.21132189
0002f0 eb da f3 be d8 8b 2a be 18 c6 f0 be 51 fe 53 be
       -0.4762796 -0.16654909 -0.47026134 -0.20702483
000300 7f 82 23 be c4 6d a7 3d e7 96 03 bf b5 1a 44 bf
       -0.15967749 0.08175233 -0.51402134 -0.7660325
000310 db 3f 4e bf 35 23 83 bf 4d 5b 4b bf bf c8 3a bf
       -0.80566186 -1.0245119 -0.7943619 -0.72962564
000320 91 8a 44 bf 26 95 4f be d6 c7 2d bf 0a ca 06 bf
       -0.76773936 -0.2027174 -0.6788305 -0.5265204
000330 14 2a 24 bf de a4 fc be 8b c9 c0 be 44 b6 3b be
       -0.64126706 -0.49344534 -0.37653765 -0.18331248
000340 3e 23 97 be 2b 80 27 bd a9 a0 ea bd 5b 8d d1 3d
       -0.29519075 -0.040893715 -0.11456425 0.102320395
000350 0d e0 b6 3d 82 d7 a9 3e 77 55 e2 3c f7 ef b4 3d
       0.08929453 0.33172232 0.027628643 0.08834832
000360 b6 24 e4 3d cc 0f 33 3e 2f 24 17 3e 5f 4e a3 3e
       0.111398146 0.17486495 0.14759897 0.3189573
000370 f4 d6 69 3e a6 d5 9c 3e 8f 96 69 3e 62 50 11 3f
       0.22835904 0.3063175 0.2281134 0.5676328
000380 00 3f 19 bb ce 9f 11 be 22 06 0d 3f 87 ec e8 be
       -0.0023383498 -0.14221117 0.5508748 -0.45492956
000390 da f8 99 3f 30 24 85 bd 5d e9 38 3f c2 51 04 bf
       1.2029068 -0.06501043 0.72231084 -0.5168725
0003a0 bc 9d 3f 3f 1b ba 10 bf 29 48 0e 3f 9c f7 6b be
       0.7485006 -0.56533974 0.5557886 -0.23043674
0003b0 a3 00 a9 3e 90 fc b6 be d7 da 6a 3e ee 56 a3 be
       0.33008298 -0.35739565 0.22935043 -0.3190226
0003c0 62 47 8d 3b d4 9b 43 be 00 dc fd bc 60 fa 92 be
       0.004311488 -0.19102412 -0.030988693 -0.28706646
0003d0 c5 1b 50 be 03 6e fa bd f1 58 38 be b1 48 dd bc
       -0.20323093 -0.12228014 -0.18002678 -0.027012201
0003e0 55 a0 d3 be 30 33 cb bc 0f c6 c9 be 00 a8 06 3d
       -0.4133326 -0.024804682 -0.3940892 0.03287506
0003f0 b9 07 df be 56 e8 cc 3d 52 37 c8 be f2 f2 fd 3d
       -0.4356058 0.10005252 -0.39104706 0.12399854

sequential/dense_1/MatMul f4 [10, 24]
000000 e9 d9 b8 3f 5f 51 dd 3e a4 19 c3 3f f4 20 f7 3e
       1.4441501 0.43226144 1.52422 0.4826733
000010 10 68 1f bb 6f eb ca 3f e7 67 b9 3f cd 63 d2 3f
       -0.00243235 1.5853099 1.4484833 1.6436707
000020 8d eb 30 3f cc 43 75 3e aa c8 a2 3f b2 f2 96 3f
       0.6910942 0.23951644 1.2717488 1.1792815
000030 3e c1 9b 3f fb f8 b8 3e 7d 77 58 3e d4 de b5 3e
       1.2168348 0.36127457 0.21139331 0.35521567
000040 c8 65 b2 3f 48 35 25 3f 9b a9 ad 3e 75 ab 66 bd
       1.3937311 0.64534426 0.3391846 -0.056315858
000050 13 8e fd 3d 03 2b 90 3e bd 76 34 3f 3c 81 de 3c
       0.12380614 0.28157815 0.7049368 0.027161233
000060 cd d4 4e 3f 46 a7 87 bd ef b9 9b 3f e1 21 ce 3e
       0.8079346 -0.06623702 1.2166117 0.40260223
000070 0b 68 2b 3f 59 88 fc 3e dd d7 78 3f 29 15 ae 3f
       0.6695563 0.49322775 0.9720438 1.3600208
000080 1a b5 fa 3e 7b f0 3d 3e 38 a2 73 3f aa 5f 3e 3f
       0.48966295 0.18548767 0.951694 0.7436472
000090 c3 d9 50 3f 8b 7a 16 3f 32 45 6a 3e 30 da e4 3e
       0.8158228 0.58780736 0.22877958 0.44697714
0000a0 5a bf 45 3f 7f d9 de be 21 6d 65 3f b4 d4 81 3e
       0.77245104 -0.4352531 0.8961964 0.25357592
0000b0 3b b2 b5 3e 62 21 b1 3e c5 11 a0 be b5 48 2c 3e
       0.35487542 0.34595782 -0.31263557 0.1682461
0000c0 24 ab 96 bf 3f be a8 be e3 f5 80 bf ea 1d ba 3e
       -1.1770978 -0.32957646 -1.0075039 0.36350948
0000d0 8a f3 a7 bf 05 f9 80 3e 11 52 82 bf 36 a3 bc bd
       -1.3121197 0.25189987 -1.0181295 -0.092108175
0000e0 c2 fd c5 3e e3 e6 0b c0 30 04 7c bf 48 ff 81 bf
       0.38670164 -2.1859672 -0.9844389 -1.0156031
0000f0 f6 c2 40 3d c7 6e 15 3e 13 61 ad bf 89 0d d9 3e
       0.04706093 0.1459304 -1.354525 0.4239314
000100 9e be 41 be cd 2a a0 bf 76 2d 4f 3f c4 fc 0e bf
       -0.18920371 -1.2513062 0.8092874 -0.5585444
000110 77 e2 1b 3f e9 fb 2b c0 b0 3c c7 be aa 8d 90 bf
       0.6089243 -2.6872504 -0.38913488 -1.1293232
000120 b1 86 97 bf f1 fd 63 3e 86 e5 84 bf 0e 49 ce 3e
       -1.183798 0.2226484 -1.0382545 0.4029011
000130 32 be 31 3d cf 0d 96 bf 7e 3a a3 bf 59 8d ad bf
       0.043394275 -1.1722964 -1.2752225 -1.3558761
000140 14 6c d6 3e 3a 09 54 3f d2 59 39 bf 3a 36 88 bf
       0.41879332 0.8282658 -0.7240268 -1.0641549
000150 fc b2 66 bf 15 1c 01 3f 64 c7 7f 3f e7 0f e2 3d
       -0.9011686 0.50433475 0.9991362 0.110381894
000160 40 f9 94 bf c3 aa 28 3f 4d c1 fc bc dc 96 15 be
       -1.1638565 0.6588556 -0.030853892 -0.1460833
000170 69 ce 13 3f 6f be 42 3f 5c 50 54 3f 50 c2 c0 bd
       0.5773683 0.7607183 0.8293512 -0.09412062
000180 b8 9d 00 3e 32 d7 9c bf 20 8b 6e 3e ae f1 67 bf
       0.12560165 -1.2253172 0.2329526 -0.9060315
000190 21 b0 8b 3e 47 44 9e be ab b7 f2 3d dd ce cc bb
       0.27282813 -0.30911466 0.11851438 -0.006250246
0001a0 79 be ca bf 12 ff 86 3e 17 80 b6 be a6 17 40 3e
       -1.5839378 0.26366478 -0.356446 0.18759021
0001b0 0f a9 cc bd e9 7e 72 bf 7f 56 84 be ee ae 1e bf
       -0.09993183 -0.947249 -0.2584724 -0.6198567
0001c0 99 a7 e7 be 30 98 ba bf 90 37 65 3e ce 71 d4 3e
       -0.45245054 -1.4577694 0.22384477 0.41493076
0001d0 48 b4 65 3d a2 c5 1a 3e 5a f1 f6 bf 4e 66 b4 3e
       0.056080133 0.15114453 -1.9292405 0.35234302
0001e0 34 9e 37 3f bc 79 df be 39 be 94 3f ae 98 05 be
       0.71725774 -0.43647563 1.1620551 -0.13046524
0001f0 7e dc 14 3f 3d 35 68 3f 2a 37 92 3f 39 af 4a 3f
       0.58148944 0.90706235 1.1423085 0.7917362
000200 8a 6d 24 be 12 72 a4 3e 0f 0f a8 3f cb 35 79 3f
       -0.16057411 0.3211828 1.3129596 0.97347707
000210 48 0a b2 3f 3a 9e e0 bd f4 0a 6c bd 98 2a ec 3e
       1.3909388 -0.10967679 -0.057627633 0.46126246
000220 23 04 51 3f f1 6a b0 bd ff 0f 2a 3f 65 50 38 3f
       0.8164694 -0.086141475 0.6643066 0.7199767
000230 4f 5e 23 3f 84 d2 e2 3e 51 35 0f bf 10 00 05 3f
       0.6381578 0.44301236 -0.5594073 0.5195322
000240 c6 a0 8c bf cc 94 32 3f 21 98 62 bf c7 fd 65 bd
       -1.0986564 0.69758296 -0.8851338 -0.056150224
000250 06 8e de 3e 02 1c b7 bf 14 10 98 bf 18 2d 88 bf
       0.4346773 -1.4305422 -1.1879907 -1.0638762
000260 ec 01 2f 3e 89 cf ce 3e 98 45 05 bf 89 66 93 bf
       0.17090577 0.40392712 -0.52059317 -1.1515666
000270 8a e9 b5 bf 88 78 31 3f 79 15 a4 3e f9 d4 26 3e
       -1.4211895 0.6932454 0.32047632 0.1629218
000280 b3 5d 96 bf af 25 34 3f 0e b2 61 3e c3 72 5f bc
       -1.1747345 0.7037 0.22040579 -0.013638201
000290 86 4b cd 3e fe 5a 36 3f 0c 12 2f 3f f6 1d 18 3e
       0.40096682 0.71232593 0.6838691 0.14855179
0002a0 b0 2a e8 3e c3 2f cf 3e 94 50 26 3f 64 7b 2a 3f
       0.45345068 0.40466127 0.649667 0.6659453
0002b0 c6 5b 81 3e e9 64 50 3e 0b 01 36 3f a5 5a 3e 3f
       0.2526533 0.20350994 0.7109534 0.7435706
0002c0 71 5d 86 3e 87 b5 ff 3b e7 e4 a7 3e 9a bc 38 3f
       0.26243165 0.007803622 0.32791826 0.72162783
0002d0 fb 13 35 3f ba 03 9a bb 0c d9 df 3e 40 dc 3a 3f
       0.7073361 -0.0047001513 0.4372028 0.72992325
0002e0 cc bf 21 3f da d1 a5 be 87 2d 31 3f 34 68 b7 3e
       0.63183284 -0.32386667 0.69210094 0.35821688
0002f0 38 a8 69 3e b9 aa a0 3e 85 6f 77 3d ee 4a 04 3f
       0.22818077 0.3138025 0.060409088 0.51676834
000300 fd e4 82 bf 7e 0f 24 3f c1 3b 6d bf f9 f3 3c 3e
       -1.0226132 0.6408614 -0.926693 0.18452443
000310 18 1f ab 3e 47 7c b3 bf 43 c5 a6 bf ff 64 c8 bf
       0.3342216 -1.4022301 -1.302895 -1.5655822
000320 cd 5c c3 3e 7e 48 07 3f d8 2a ed be 2f 61 94 bf
       0.3815674 0.5284499 -0.4632175 -1.1592158
000330 15 05 0a c0 dc 46 18 3f a6 22 ee 3e 32 4f b9 3d
       -2.1565602 0.5948312 0.4651081 0.090483084
000340 8d 3e ec bf 82 2f 3e 3f 19 32 82 3d fd 70 c8 bc
       -1.8456589 0.7429124 0.063572116 -0.02446794
000350 91 72 cb bf 91 44 4d 3f 53 a7 6e 3f 8b ef 0e 3f
       -1.5894338 0.8018275 0.93224066 0.55834264
000360 0e cc ad bf c4 da 8e bd 6d ca ad bf 00 63 5f 3e
       -1.3577898 -0.0697532 -1.35774 0.21815109
000370 4c e3 83 3e ca 98 ae be c3 dd c8 bf fb 47 62 bf
       0.2575935 -0.34100944 -1.5692676 -0.88391083
000380 fc 13 b8 3e 6a c8 d8 3e 90 99 2b bf 7b eb aa bf
       0.35952747 0.42340404 -0.6703119 -1.3353113
000390 77 1d 30 bf 40 5f e5 bd a6 44 22 c0 ae db 77 3e
       -0.6879496 -0.11199808 -2.53544 0.24204895
0003a0 f5 bc da be f6 7c ee bd be 7f be 3e 14 11 09 3e
       -0.42722288 -0.11644928 0.37206835 0.13385421
0003b0 db 32 c5 3e 64 dd a7 3e c8 44 78 bd 64 31 8a 3e
       0.38515362 0.32786095 -0.06061247 0.26990807

sequential/dense_2/MatMul f4 [3, 10]
000000 8a ec ed bf ac 7d e5 bd e1 54 eb 3f 2d fa 8a 3e
       -1.8587811 -0.11205611 1.8385278 0.27143994
000010 41 e6 ea bf 13 bb 45 bf 9b 1a ee 3e 66 42 8e 3e
       -1.8351518 -0.7723858 0.46504673 0.27785033
000020 be 20 8e 3f 4e d7 94 3f ad 61 0b 40 d5 e2 de 3e
       1.1103742 1.1628206 2.1778367 0.43532434
000030 73 b5 a3 bf ab e5 99 be 1f 40 d2 3f 0d 18 6b 3f
       -1.2789749 -0.30058035 1.6425818 0.91833574
000040 1f a5 05 be 5b c0 42 3f ab ed 92 be 0c 00 60 bf
       -0.1305127 0.7607476 -0.2869695 -0.8750007
000050 bc 70 1f 3e 6a bf 00 c0 b7 22 05 c0 5f 26 ed bf
       0.15570349 -2.011683 -2.0802438 -1.8527335
000060 55 ad b0 bf 3e 55 88 bf e4 d5 a2 bf 51 eb ab bf
       -1.3802897 -1.0651014 -1.2721524 -1.3431188
000070 ea 20 92 bf 44 e5 ff bf
       -1.1416295 -1.9991841
